…
Neural network training data shape: (15998, 100)
Neural network test data shape: (4000, 100)
Number of unique tokens: 30820

================================================================================
TRAINING CNN-LSTM NEURAL NETWORK
================================================================================

Model Architecture:
Model: "sequential"
┏━━━━━━━━━━━━━━━━━━━━━━━━━━━━━━━━━┳━━━━━━━━━━━━━━━━━━━━━━━━┳━━━━━━━━━━━━━━━┓
┃ Layer (type)                    ┃ Output Shape           ┃       Param # ┃
┡━━━━━━━━━━━━━━━━━━━━━━━━━━━━━━━━━╇━━━━━━━━━━━━━━━━━━━━━━━━╇━━━━━━━━━━━━━━━┩
│ embedding (Embedding)           │ (15998, 100, 128)      │     1,280,000 │
├─────────────────────────────────┼────────────────────────┼───────────────┤
│ conv1d (Conv1D)                 │ (15998, 98, 64)        │        24,640 │
├─────────────────────────────────┼────────────────────────┼───────────────┤
│ max_pooling1d (MaxPooling1D)    │ (15998, 49, 64)        │             0 │
├─────────────────────────────────┼────────────────────────┼───────────────┤
│ dropout (Dropout)               │ (15998, 49, 64)        │             0 │
├─────────────────────────────────┼────────────────────────┼───────────────┤
│ lstm (LSTM)                     │ (15998, 64)            │        33,024 │
├─────────────────────────────────┼────────────────────────┼───────────────┤
│ dense (Dense)                   │ (15998, 32)            │         2,080 │
├─────────────────────────────────┼────────────────────────┼───────────────┤
│ batch_normalization             │ (15998, 32)            │           128 │
│ (BatchNormalization)            │                        │               │
├─────────────────────────────────┼────────────────────────┼───────────────┤
│ dropout_1 (Dropout)             │ (15998, 32)            │             0 │
├─────────────────────────────────┼────────────────────────┼───────────────┤
│ dense_1 (Dense)                 │ (15998, 3)             │            99 │
└─────────────────────────────────┴────────────────────────┴───────────────┘
 Total params: 1,339,971 (5.11 MB)
 Trainable params: 1,339,907 (5.11 MB)
 Non-trainable params: 64 (256.00 B)

Training model...
Epoch 1/10
Epoch 2/10
Epoch 3/10
Epoch 4/10
Epoch 5/10
Epoch 6/10
Epoch 7/10
Epoch 8/10
Epoch 9/10
Epoch 10/10


Test Loss: 0.4538
Test Accuracy: 0.8460
Test F1-Macro: 0.8459

============================================================
…
